demo_img_class_resources/lenet5-mnist.pth (torch, 250441 bytes, 10 tensors)

convBlock1.0.weight f4 [6, 1, 5, 5]
0.11381059 0.17784007 0.45598698 0.20490882 0.30977702 -0.33567157 -0.29047328 -0.2267854
-0.72647 -0.054009285 -0.112721264 0.34925234 1.0482455 1.0431826 0.007979544 -0.41362673
0.15405566 0.71590275 0.73025054 -0.57053226 -0.37920347 -0.6157446 -0.761722 -0.33820242
-0.8912407 -0.066194154 -0.45275593 -0.17570075 -0.7401933 -0.018009963 -0.076596364 0.107257366
0.50491416 -1.377287 -1.3290927 0.14818023 0.63710797 1.4574536 -0.14366573 -0.8631863
-0.69845015 -0.12122358 1.188488 -0.0431434 -0.46999538 -1.1011492 -0.49836475 0.37001345
0.67558753 0.63644814 -0.353931 0.4865153 0.96747404 0.32401517 -0.61713356 -1.1362078
0.09334043 0.23012568 -0.3203206 -1.2005292 -0.668731 0.44684196 0.40292293 -0.30369213
-0.8836145 -0.11065521 0.5082941 0.10256864 -0.54785895 -0.47613806 -0.13660352 -0.16542591
-0.83582896 -0.7946444 -0.25188318 0.9725639 0.8944686 -0.5013705 -1.3727736 -0.6463159
-0.20973027 -0.122268125 -0.8149745 -0.50002885 0.42083636 0.19126578 0.091061324 0.13601995
0.49866462 0.6521322 1.0156448 0.47883895 0.014264996 -0.31154367 -0.42759752 0.6691469
0.39301774 -0.32114437 -0.6382597 0.16459823 0.64807767 0.1479604 -0.52341527 -0.8295842
-0.09910289 1.089077 0.015888395 -0.9464544 -0.9285407 0.31610742 0.75149935 -0.21217343
-0.9312027 -0.71837413 0.6232446 0.123677395 -0.9145377 -0.34970212 -0.89492744 0.051806312
-0.32046872 -0.38269424 0.23506932 -0.5057046 0.49306446 0.32446256 0.070737824 -0.40573093
-0.6823911 -1.2040987 0.32904676 -1.0074449 -1.5889287 -0.69141096 0.037828576 -0.6990332
-0.4819966 -0.2171855 0.36404845 1.2302428 -1.0418478 -0.32383662 0.4027494 0.81719714
0.99926585 -0.046184972 -0.31752545 -0.39407092 -0.076186776 -0.1041889
00000000: 8715 e93d b51b 363e 2077 e93e 9ed3 513e
00000010: 189b 9e3e 25dd abbe eab8 94be 6f3a 68be
00000020: f0f9 39bf d738 5dbd 68da e6bd 34d1 b23e
00000030: e92c 863f 0287 853f a2bc 023c e2c6 d3be
00000040: c4c0 1d3e 6745 373f b3f1 3a3f 670e 12bf
00000050: f526 c2be 70a1 1dbf 3700 43bf de28 adbe
00000060: 5a28 64bf cd90 87bd a0cf e7be e6ea 33be
00000070: 4f7d 3dbf a189 93bc 8ede 9cbd c0a9 db3d
00000080: 0e42 013f f14a b0bf b61f aabf 8fbc 173e
00000090: 8219 233f d78d ba3f 1c1d 13be c7f9 5cbf
000000a0: a1cd 32bf 1144 f8bd 6020 983f 22b7 30bd
000000b0: 3ca3 f0be 75f2 8cbf aa29 ffbe 6772 bd3e
000000c0: 4ef3 2c3f 44ee 223f 7236 b5be 8918 f93e
000000d0: 61ac 773f 51e5 a53e 77fc 1dbf 426f 91bf
000000e0: 4429 bf3d 11a6 6b3e 1001 a4be f1aa 99bf
000000f0: f431 2bbf 78c8 e43e ea4b ce3e 897d 9bbe
00000100: 8f34 62bf 339f e2bd 901f 023f 820f d23d
00000110: 7c40 0cbf 5ec8 f3be cbe1 0bbe 6965 29be
00000120: e3f8 55bf d16d 4bbf d5f6 80be f3f9 783f
00000130: e5fb 643f d159 00bf 0cb7 afbf f574 25bf
00000140: 88c3 56be b667 fabd 2ba2 50bf e401 00bf
00000150: dd77 d73e 2ddb 433e 5c7e ba3d d048 0b3e
00000160: f850 ff3e 23f2 263f a600 823f 612a f53e
00000170: bbb7 693c a782 9fbe 10ee dabe 364d 2b3f
00000180: 9f39 c93e 096d a4be fd64 23bf 708c 283e
00000190: 6be8 253f ee82 173e 8bfe 05bf a15f 54bf
000001a0: 75f6 cabd e066 8b3f 6128 823c d64a 72bf
000001b0: d8b4 6dbf d5d8 a13e 4362 403f fe43 59be
000001c0: 4d63 6ebf 5ee7 37bf f58c 1f3f 934a fd3d
000001d0: 251f 6abf 280c b3be f719 65bf db32 543d
000001e0: 7a14 a4be 80f0 c3be 03b6 703e db75 01bf
000001f0: f272 fc3e f51f a63e fede 903d f7bb cfbe
00000200: 2fb1 2ebf e81f 9abf d178 a83e f4f3 80bf
00000210: 0462 cbbf 4f00 31bf 23f2 1a3d d7f3 32bf
00000220: 42c8 f6be e065 5ebe 8f64 ba3e 9978 9d3f
00000230: 455b 85bf eacd a5be 2b35 ce3e d533 513f
00000240: e3cf 7f3f 742c 3dbd b292 a2be aac3 c9be
00000250: d007 9cbd fd60 d5bd

convBlock1.0.bias f4 [6]
-2.3693724 -2.3166685 -1.2190105 -3.829638 -2.5633678 -3.0464401
00000000: cca3 17c0 4c44 14c0 8908 9cbf ca18 75c0
00000010: 380e 24c0 e0f8 42c0

convBlock2.0.weight f4 [16, 6, 5, 5]
-0.013089334 -0.37792152 -0.5011878 0.15462953 0.020880722 -0.29812124 -0.8707764 0.12241992
0.55492723 -0.069222264 -0.7759957 -0.46583298 0.19479467 -0.18665788 -0.55975777 -1.0319146
-0.5910223 0.4362785 0.023328273 -0.7323226 -1.0713438 -0.22736244 0.030101247 -0.45222542
-0.45187765 0.21677087 -0.6605841 -1.0347396 -0.42881575 -0.67948717 -0.24845591 -0.5828676
-0.33239204 0.28339878 -0.11573776 -0.7475412 -0.39765888 0.32642296 0.45380282 -0.37913802
-0.36805496 -0.16552696 0.2617445 0.17727476 -0.5470692 -0.20126528 -0.15692076 0.25617436
0.18680553 -0.245852 -0.37790093 -0.05610924 0.14606115 0.21296516 -0.11640499 0.06641591
0.16303276 -0.14497356 0.42605734 0.017709766 0.2270427 0.07654383 -0.29018983 0.49100694
-0.15296024 -0.038768616 0.013887199 -0.15054263 0.44517684 -0.06550424 -0.039483313 -0.046003297
0.14669737 0.19278163 -0.016731288 0.15282068 -0.0623632 -0.3553054 0.032890435 0.007831674
0.31102014 -0.32867122 -0.54475754 -0.23615639 -0.4551511 0.32926384 -0.2592327 -0.5000488
-0.23808603 -0.23093913 -0.071704574 -0.40461037 -0.4493472 0.09717679 0.21373668 -0.25051263
-0.15715563 -0.2996443 0.58136487 -0.098012656 -0.06008919 -0.35629302 -0.82872635 -0.6343605
-0.1897329 0.7642349 0.16763401 -0.44291726 -0.27026528 0.12044459 0.48411196 0.03305545
-0.08651209 -0.28882653 0.66545904 0.28034523 -0.0465451 0.1703654 0.09948701 0.11188925
0.49031103 -0.026243586 -0.032708526 0.16790661 -0.036036395 -0.85473853 -0.899081 -1.0100309
-0.8787931 -0.4267407 -0.5771703 -0.12982632 0.77438337 0.061043005 -0.50171614 -0.73950577
0.40887752 0.31464422 -0.76895374 0.32922646 -0.48596552 0.26904202 -0.003094264 -0.61130816
0.35523677 0.25785762 0.45325887 -0.02929616 -0.2702891 0.005900807 0.28571653 -0.20591669
0.15319796 -0.40315425 -0.120361246 0.12813778 -0.05461253 -0.36900333 -0.51487017 -0.13336875
-0.11783633 0.40862444 0.4909029 -0.18644384 -0.54111475 -0.8012325 -0.07868338 0.3842093
0.3669711 0.010528353 -0.7745442 -0.54166 -0.53957385 -0.2690087 0.28841814 -0.43787068
-0.22897895 0.77370095 0.14427662 0.10181922 -0.5560046 -0.17008781 0.321093 0.12770365
-0.38805753 -0.4411274 -0.05853493 0.3617593 0.39636904 -0.2775519 -0.29089004 -0.26534936
-0.048785303 0.16830018 0.48340353 -0.08350199 -0.23049167 -0.49543408 -0.3810234 -0.1377329
-0.309218 -0.24434295 -0.16545458 -0.22354138 -0.047117647 -0.14465292 -0.20132688 0.11877991
-0.37395936 -0.24333061 0.18935867 0.034452103 0.2486483 -0.22634621 -0.057917662 0.23857917
0.19343473 -0.0035064274 -0.3299088 -0.027146269 0.15965277 0.21451388 -0.09328522 -0.2532833
-0.30021265 -0.23148218 0.011556497 0.7163123 0.44128662 -0.26616192 -0.5168439 -0.1544126
-0.23383091 0.173897 -0.15233792 -0.5697591 -0.3444706 -0.17612234 0.07749128 -0.28897744
-0.18919492 -0.48553658 -0.10818727 0.053209767 0.049158216 0.27882928 -0.5815261 -0.4188014
0.04267467 0.16094802 -0.31301698 -0.5999571 -0.237708 0.21936792 -0.23263115 -0.00022284478
00000000: a574 56bc ee7e c1be d84d 00bf 3457 1e3e
00000010: 0c0e ab3c 59a3 98be 34eb 5ebf 4cb7 fa3d
00000020: b60f 0e3f 67c4 8dbd a7a7 46bf a981 eebe
00000030: 4178 473e 3e23 3fbe 494c 0fbf c715 84bf
00000040: 3d4d 17bf e55f df3e ef1a bf3c 7e79 3bbf
00000050: cb21 89bf b3d1 68be e496 f63c 178a e7be
00000060: 825c e7be 2ff9 5d3e 0a1c 29bf 5972 84bf
00000070: bd8d dbbe dff2 2dbf 3a6b 7ebe d036 15bf
00000080: 4a2f aabe a519 913e eb07 edbd dc5e 3fbf
00000090: f299 cbbe e920 a73e d858 e83e 611e c2be
000000a0: b371 bcbe e67f 29be 6003 863e 8487 353e
000000b0: ba0c 0cbf 7c18 4ebe d6af 20be 4929 833e
000000c0: f349 3f3e a0c0 7bbe 3b7c c1be cdd2 65bd
000000d0: 0e91 153e 8a13 5a3e bd65 eebd 1105 883d
000000e0: 0ff2 263e f373 14be 3024 da3e 1214 913c
000000f0: e27d 683e 03c3 9c3d c393 94be 4365 fb3e
00000100: 9ca1 1cbe d7cb 1ebd 2287 633c d927 1abe
00000110: 38ee e33e 1627 86bd 41b9 21bd f46d 3cbd
00000120: d637 163e 8c68 453e 0e10 89bc 067d 1c3e
00000130: 8e70 7fbd 97ea b5be 1fb8 063d 6c50 003c
00000140: 083e 9f3e 9847 a8be 3b75 0bbf fbd2 71be
00000150: 9109 e9be 4595 a83e 26ba 84be 3303 00bf
00000160: d3cc 73be 4f7b 6cbe d9d9 92bd 1729 cfbe
00000170: d610 e6be a004 c73d cadd 5a3e 3143 80be
00000180: 68ed 20be fa6a 99be 54d4 143f dcba c8bd
00000190: 1520 76bd 0a6c b6be 6927 54bf 7365 22bf
000001a0: 5749 42be e6a4 433f 40a8 2b3e 0dc6 e2be
000001b0: 3660 8abe a7ab f63d 86dd f73e 2765 073d
000001c0: 402d b1bd 12e1 93be 865b 2a3f 6989 8f3e
000001d0: 13a6 3ebd 4474 2e3e d8bf cb3d 3126 e53d
000001e0: 0c0a fb3e cafc d6bc 60f9 05bd b6ef 2b3e
000001f0: e69a 13bd 25d0 5abf 2c2a 66bf b148 81bf
00000200: 96f8 60bf c27d dabe 6fc1 13bf 31f1 04be
00000210: fd3d 463f 3b08 7a3d 7870 00bf 4050 3dbf
00000220: 6558 d13e 0c19 a13e 27da 44bf 5f90 a83e
00000230: 79d0 f8be e0bf 893e 23c9 4abb b17e 1cbf
00000240: 98e1 b53e ea05 843e 8c11 e83e 80fe efbc
00000250: 5563 8abe 8f5b c13b 7049 923e d3db 52be
00000260: eddf 1c3e 3c6a cebe f57f f6bd 8d36 033e
00000270: 63b1 5fbd 01ee bcbe 88ce 03bf d191 08be
00000280: 2c54 f1bd 3937 d13e a057 fb3e 22eb 3ebe
00000290: 7f86 0abf 931d 4dbf c024 a1bd 15b7 c43e
000002a0: a3e3 bb3e 1d7f 2c3c 8748 46bf 3baa 0abf
000002b0: 8321 0abf 82bb 89be 8bab 933e 9630 e0be
000002c0: 7579 6abe 4411 463f 40bd 133e 9886 d03d
000002d0: 5156 0ebf 802b 2ebe 4d66 a43e bfc4 023e
000002e0: 7aaf c6be 73db e1be 53c2 6fbd 8438 b93e
000002f0: e2f0 ca3e 481b 8ebe 8aef 94be dfdb 87be
00000300: 19d3 47bd e256 2c3e ab80 f73e 1703 abbd
00000310: 0206 6cbe 89a9 fdbe 8015 c3be da09 0dbe
00000320: d251 9ebe 0a35 7abe ed6c 29be 08e8 64be
00000330: 6ffe 40bd e51f 14be a228 4ebe e242 f33d
00000340: 9a77 bfbe a92b 79be 3de7 413e a61d 0d3d
00000350: a99d 7e3e 4dc7 67be 123b 6dbd 194e 743e
00000360: c113 463e 17cc 65bb cee9 a8be da61 debc
00000370: 047c 233e 87a9 5b3e 520c bfbd 59ae 81be
00000380: 79b5 99be aa09 6dbe 7657 3d3c 3e60 373f
00000390: 52f0 e13e 6046 88be e24f 04bf 561e 1ebe
000003a0: 5f71 6fbe 0e12 323e 79fe 1bbe bbdb 11bf
000003b0: 735e b0be 6a59 34be c0b3 9e3d daf4 93be
000003c0: 50bc 41be 4098 f8be 4a91 ddbd 7cf2 593d
000003d0: 205a 493d b6c2 8e3e e5de 14bf 236d d6be
000003e0: a3cb 2e3d 8fcf 243e c343 a0be ca96 19bf
000003f0: ba69 73be fca1 603e dc36 6ebe 71ab 69b9

convBlock2.0.bias f4 [16]
-0.35531825 -0.060761552 -0.6178704 -0.35869592 -0.13670793 0.15832327 -0.0208421 -0.25097305
-0.38154626 -0.2702932 -0.44958034 -0.051606156 -0.21965048 -0.17986506 0.16275407 -0.42082122
00000000: 46ec b5be 1be1 78bd c12c 1ebf fea6 b7be
00000010: 2afd 0bbe 7f1f 223e 0dbd aabc 8a7f 80be
00000020: 085a c3be df63 8abe 652f e6be fa60 53bd
00000030: 0eec 60be 8c2e 38be 01a9 263e e175 d7be

fc1.0.weight f4 [120, 400]
0.22768469 0.047304966 -0.10787446 -0.08934932 -0.10272178 0.3166138 -0.21998627 -0.0960964
-0.018775165 -0.15038493 -0.16352332 0.012757224 -0.061211213 -0.27973798 -0.06442322 -0.19609691
-0.14956242 -0.05147049 -0.09234994 0.15845208 -0.060322482 -0.044985168 -0.09524086 0.028887605
-0.13239397 -0.05917601 -0.03288044 0.026401376 0.04452266 0.061584026 -0.024867047 -0.0022960824
0.20499177 0.11294221 0.14258035 -0.012735993 -0.08162947 -0.04815325 -0.14208631 -0.08839637
0.18602724 0.14672627 0.02294735 -0.04368591 -0.14069209 0.25355595 0.3764157 0.02807922
-0.1912576 -0.18146451 -0.050718315 -0.014470009 0.1965967 0.21107335 0.13386436 0.04467554
0.24887443 0.058943138 0.065197214 0.15623896 -0.23285475 0.20910303 0.21434647 0.063781075
-0.27575386 -0.1863809 -0.0458018 0.096849605 -0.0648942 -0.29228398 -0.32210028 -0.009603322
0.108229056 -0.061166514 -0.20661376 0.2454043 0.2201511 0.05243862 0.028232515 0.31200257
-0.28428265 -0.14519069 -0.2709809 -0.059897207 0.05556731 -0.4958649 -0.031827293 0.27078143
0.09921088 -0.3528897 -0.3998268 -0.010408129 0.17887667 0.034332138 -0.0690106 -0.068533756
0.012176935 0.059833948 -0.08630244 -0.08041015 -0.13184361 -0.16762343 -0.17046723 -0.17217132
-0.03056463 0.017532155 0.14144471 -0.043784056 -0.21008761 -0.12089629 0.2392468 0.14882366
-0.1296774 -0.22390409 -0.022349376 0.05202138 -0.07525254 -0.122267805 -0.36462793 0.026257014
-0.0050903657 -0.022139655 -0.13131997 -0.09626461 0.09769091 -0.14044458 -0.030425087 0.08571311
-0.008937306 -0.08760245 -0.37531745 0.039642006 0.4259717 0.20667198 0.0021853864 -0.27042434
-0.19780074 -0.04731916 0.034863804 0.009287664 0.15546118 0.06370007 -0.07928621 -0.07460256
-0.11603016 -0.036632903 0.061701585 0.13162147 -0.29913488 -0.012304047 -0.16714579 -0.20050003
0.013176356 0.33296293 0.05149735 -0.50744826 -0.36546454 0.30210036 0.3320728 0.119849384
-0.14633815 -0.10238424 -0.072202064 -0.46729955 -0.23640057 0.35250482 0.14817855 -0.36241376
-0.046207964 -0.042536777 0.08942269 -0.20485064 -0.2186977 -0.15177862 0.0016894822 0.15635782
0.3196718 0.016697185 -0.084069595 0.03335663 0.13496925 0.060420275 -0.23584644 -0.2229858
-0.21495865 -0.17676848 -0.29962355 -0.080039546 0.1041535 -0.21449655 -0.09821139 0.037847374
0.2063138 0.09100475 -0.12994038 -0.09974755 0.2051998 0.32196394 -0.018812355 0.0009887299
-0.06986968 -0.037512362 0.13438089 0.084805235 -0.0883925 -0.198362 -0.09952268 -0.15670232
-0.012346039 -0.13051799 -0.30512473 -0.40423647 -0.12417139 -0.079269364 -0.050925665 -0.1610168
-0.21514632 0.16862173 0.30236655 -0.03177457 0.18467791 0.0066315387 0.094850875 0.2674341
0.096708655 -0.12967482 -0.20451713 -0.17419098 -0.24042746 -0.20097099 -0.28672773 -0.0742987
-0.027460909 -0.17040123 -0.2627996 -0.06903916 0.081174955 0.025525527 -0.040457442 -0.46301252
-0.08692265 0.15886141 -0.09062884 -0.022420965 0.19320989 -0.18655457 -0.06208054 -0.101540916
-0.11543145 -0.051733986 0.001072957 -0.12036615 -0.014326006 -0.21049811 -0.026474025 -0.16709097
00000000: 2d26 693e dac2 413d 49ed dcbd c7fc b6bd
00000010: cc5f d2bd 341b a23e 1544 61be 30ce c4bd
00000020: 60ce 99bc 82fe 19be a872 27be ad03 513c
00000030: 9cb8 7abd d139 8fbe 52f0 83bd a1cd 48be
00000040: e426 19be b8d2 52bd f721 bdbd 4341 223e
00000050: b514 77bd 5e42 38bd a40d c3bd b3a5 ec3c
00000060: 4992 07be 8b62 72bd a4ad 06bd b347 d83c
00000070: 655d 363d 883f 7c3d fab5 cbbc df79 16bb
00000080: 5de9 513e 3f4e e73d 9500 123e a0aa 50bc
00000090: 5a2d a7bd 583c 45bd 137f 11be 2809 b5bd
000000a0: ed7d 3e3e 693f 163e 15fc bb3c ffef 32bd
000000b0: 9611 10be 16d2 813e 8fb9 c03e 6406 e63c
000000c0: 08d9 43be d5d1 39be 02be 4fbd 9e13 6dbc
000000d0: a550 493e 9d23 583e bd13 093e b3fd 363d
000000e0: f0d8 7e3e 5c6e 713d 1e86 853d 1bfd 1f3e
000000f0: 7a71 6ebe 1b1f 563e a47d 5b3e a79f 823d
00000100: 9c2f 8dbe a2da 3ebe ab9a 3bbd 1659 c63d
00000110: 40e7 84bd 3fa6 95be 54ea a4be 4057 1dbc
00000120: 32a7 dd3d bd89 7abd 8f92 53be 444b 7b3e
00000130: 4a6f 613e e1c9 563d e047 e73c cdbe 9f3e
00000140: 7f8d 91be deac 14be 02be 8abe c656 75bd
00000150: 8c9a 633d 01e2 fdbe 565d 02bd dda3 8a3e
00000160: 132f cb3d f5ad b4be 19b6 ccbe db86 2abc
00000170: 722b 373e db9f 0c3d 6e55 8dbd 6d5b 8cbd
00000180: c481 473c 7114 753d 55bf b0bd 14ae a4bd
00000190: 0302 07be 7aa5 2bbe f68e 2ebe ae4d 30be
000001a0: ad62 fabc 989f 8f3c e2d6 103e e956 33bd
000001b0: 3521 57be 7998 f7bd 1dfd 743e 3b65 183e
000001c0: 27ca 04be 1d47 65be 0a16 b7bc 5f14 553d
000001d0: 011e 9abd 8b67 fabd 83b0 babe f318 d73c
000001e0: 15cd a6bb 395e b5bc be78 06be 6126 c5bd
000001f0: 2c12 c83d b4d0 0fbe 083e f9bc 5b8a af3d
00000200: c76d 12bc ea68 b3bd 9c29 c0be a85f 223d
00000210: f618 da3e d2a1 533e b338 0f3b 0f75 8abe
00000220: 478c 4abe bcd1 41bd 59cd 0e3d 492b 183c
00000230: 3731 1f3e 2f75 823d cf60 a2bd 3ac9 98bd
00000240: 38a1 edbd 620c 16bd cdba 7c3d c7c7 063e
00000250: 3528 99be ea96 49bc 4428 2bbe e14f 4dbe
00000260: a5e1 573c 1e7a aa3e e3ee 523d 21e8 01bf
00000270: 2b1e bbbe e6ac 9a3e 7205 aa3e 9873 f53d
00000280: abd9 15be d4ae d1bd adde 93bd e341 efbe
00000290: fe12 72be 837b b43e 1ebc 173e 4c8e b9be
000002a0: 9044 3dbd 0b3b 2ebd 3e23 b73d 5ec4 51be
000002b0: 4af2 5fbe db6b 1bbe 9e71 dd3a 441c 203e
000002c0: 06ac a33e 89c8 883c ae2c acbd f6a0 083d
000002d0: 6135 0a3e 407b 773d bb81 71be 6456 64be
000002e0: 1f1e 5cbe cc02 35be 4268 99be c6eb a3bd
000002f0: 6e4e d53d fca4 5bbe 0e23 c9bd d905 1b3d
00000300: ed43 533e b360 ba3d 170f 05be 7248 ccbd
00000310: e51f 523e 75d8 a43e 5e1c 9abc 4598 813a
00000320: d617 8fbd 90a6 19bd 259b 093e 5eae ad3d
00000330: 2107 b5bd 681f 4bbe 8cd2 cbbd 9376 20be
00000340: 0a47 4abc 82a6 05be 4f39 9cbe 15f8 cebe
00000350: 924d febd fa57 a2bd 6e97 50bd 97e1 24be
00000360: 514f 5cbe 2dab 2c3e cacf 9a3e 0d26 02bd
00000370: 351c 3d3e 614d d93b 2d41 c23d 1fed 883e
00000380: 300f c63d 7ac9 04be f06c 51be 1f5f 32be
00000390: 9e32 76be 57cb 4dbe facd 92be eb29 98bd
000003a0: b3f5 e0bc a97d 2ebe ab8d 86be 6764 8dbd
000003b0: 0e3f a63d e91a d13c b4b6 25bd fa0f edbe
000003c0: 8104 b2bd 91ac 223e 9d9b b9bd 2cac b7bc
000003d0: d0d8 453e 2908 3fbe 2a48 7ebd aff4 cfbd
000003e0: 5367 ecbd 04e7 53bd 76a2 8c3a 8782 f6bd
000003f0: a0b7 6abc d18c 57be 0ee0 d8bc e519 2bbe

fc1.0.bias f4 [120]
0.025943125 -0.10053206 -0.091802835 0.039134648 -0.24264602 0.034891345 -0.057162717 -0.035516378
0.023489518 0.029418714 -0.13038425 0.008551584 -0.052020114 -0.012046094 -0.04589293 -0.048177026
-0.0021000442 0.093564495 0.07703033 -0.1512399 0.029266903 -0.06736483 0.04042324 -0.07671703
0.07587243 0.14014019 -0.045596 0.10285098 -0.031208592 0.042927794 -0.10910545 -0.072057135
-0.0045481403 -0.020326907 -0.08407092 -0.05360243 0.010543738 -0.07433978 0.0029193345 0.056157053
-0.014611636 0.062200032 -0.14145029 -0.009941854 0.11706985 -0.07126119 -0.12083766 -0.014593375
-0.045303132 -0.11612305 -0.020456936 0.04900625 0.029589728 -0.11345748 0.038220625 0.080228254
-0.055526413 0.07414073 -0.023004774 0.05012644 -0.1058041 -0.0101471385 -0.03844749 0.01440127
0.013334916 0.14740583 0.036067396 0.023869382 -0.04514384 -0.019413404 -0.011647414 -0.105340585
-0.013441875 0.0025510157 -0.049603697 0.046334058 -0.091086365 -0.09194821 -0.17603575 -0.047967352
0.016100435 -0.14033833 -0.06299773 -0.0047397614 0.014359657 -0.06829043 -0.018144581 -0.063758224
-0.07668813 -0.052411206 -0.07921539 -0.04187661 -0.13266297 -0.07990539 -0.16405462 -0.059093714
0.054354865 0.034634173 0.05425161 0.10675496 -0.029913701 0.11944122 -0.018710418 -0.011464257
-0.09403801 -0.08631776 -0.009445685 -0.027117305 -0.0015976768 -0.14499962 -0.05839133 -0.04351122
-0.057089705 -0.10991496 -0.09964278 0.08195224 -0.053866953 -0.0868189 -0.062128074 0.009966768
00000000: ad86 d43c c1e3 cdbd 2003 bcbd a74b 203d
00000010: 3378 78be 3aea 0e3d 7423 6abd 9f79 11bd
00000020: 176d c03c 84ff f03c 7383 05be f11b 0c3c
00000030: 0b13 55bd fb5c 45bc 3afa 3bbd 4655 45bd
00000040: e5a0 09bb be9e bf3d 14c2 9d3d a2de 1abe
00000050: 25c1 ef3c 92f6 89bd d792 253d d11d 9dbd
00000060: 0163 9b3d e980 0f3e dfc2 3abd 89a3 d23d
00000070: 29a9 ffbc 0ed5 2f3d ae72 dfbd b192 93bd
00000080: 9108 95bb 9d84 a6bc 602d acbd 398e 5bbd
00000090: a4bf 2c3c 743f 98bd 4e52 3f3b f004 663d
000000a0: a565 6fbc 76c5 7e3d 58d8 10be 28e3 22bc
000000b0: 51c2 ef3d 63f1 91bd bc79 f7bd 0d19 6fbc
000000c0: c78f 39bd ecd1 edbd 4e95 a7bc c7ba 483d
000000d0: 2866 f23c 655c e8bd 3b8d 1c3d b64e a43d
000000e0: aa6f 63bd 18d7 973d 8274 bcbc 6251 4d3d
000000f0: d2af d8bd 2f40 26bc 1e7b 1dbd 4ef3 6b3c
00000100: b17a 5a3c 8ef1 163e 68bb 133d b989 c33c
00000110: bfe8 38bd dc08 9fbc ccd4 3ebc cebc d7bd
00000120: 4f3b 5cbc f12e 273b 3f2d 4bbd c8c8 3d3d
00000130: 7d8b babd 584f bcbd b742 34be 6a79 44bd
00000140: 0fe5 833c dab4 0fbe f404 81bd 0050 9bbb
00000150: c444 6b3c dadb 8bbd f2a3 94bc ac93 82bd
00000160: ab0e 9dbd 22ad 56bd ae3b a2bd cf86 2bbd
00000170: cdd8 07be 70a5 a3bd effd 27be 400c 72bd
00000180: 35a3 5e3d 90dc 0d3d f036 5e3d 58a2 da3d
00000190: 940d f5bc 999d f43d 9746 99bc 94d4 3bbc
000001a0: 0097 c0bd 5ec7 b0bd 13c2 1abc 1c25 debc
000001b0: 2369 d1ba c87a 14be bf2b 6fbd d238 32bd
000001c0: e5d6 69bd 181b e1bd 8411 ccbd 93d6 a73d
000001d0: 98a3 5cbd 1cce b1bd 027a 7ebd a84b 233c

fc2.0.weight f4 [84, 120]
-0.0767493 -0.07820658 -0.10761833 -0.16497193 -0.010489454 0.049154203 0.062965944 -0.007646727
-0.085924536 0.008524067 -0.12106186 -0.01713991 -0.028143767 -0.30797747 0.013321048 0.2567149
0.044234805 -0.092334606 -0.18304029 0.08165805 0.012920513 0.06758943 0.015748704 -0.014621343
-0.11530981 -0.09540228 -0.0790841 0.020495232 -0.16628893 -0.10455427 -0.019437477 -0.17215237
-0.1758704 -0.124310866 -0.19981465 -0.09316319 -0.09585565 -0.10324229 -0.04282852 -0.06308354
-0.08922312 -0.04159162 -0.16686955 -0.028107444 -0.08563217 0.028487919 -0.011156225 -0.084934145
-0.07411175 -0.102047145 -0.07644362 -0.13236137 -0.08310185 0.08325915 0.06109998 0.033982646
-0.00029894075 0.031917594 -0.022727668 -0.06717859 -0.06734119 -0.059454873 -0.17718244 -0.16948812
0.010998403 -0.13499987 0.0057897083 -0.03986897 0.12229465 -0.055226326 0.014757346 0.01136337
-0.07632798 0.100616775 -0.11382285 -0.07501249 -0.023966584 -0.23206836 0.0028544986 0.00826679
-0.08838465 -0.19218595 0.30529034 -0.18734321 -0.06787036 0.14019173 -0.17464164 -0.06783984
-0.06288585 0.1270102 0.04465162 0.09576981 0.006512357 -0.053405102 0.008315666 -0.04754083
-0.15681092 -0.14991233 -0.07680046 -0.07045503 -0.022509161 0.03557523 -0.1424005 -0.08451168
-0.085870214 -0.06201226 0.062433273 -0.00049747765 0.0077852597 0.5367202 -0.11943526 -0.060715236
-0.016633032 0.041580457 -0.05760996 -0.24636655 0.09079087 -0.05311743 -0.040782467 0.019615337
-0.03601871 -0.32489443 -0.465996 -0.53902996 -0.50751513 0.006113424 -0.34385416 -0.113545835
-0.05159805 -0.0011088741 -0.31574935 -0.30954796 -0.021329876 0.065710776 0.062422853 -0.096780725
-0.013574436 0.1799621 0.0029457705 -0.3227196 -0.083477594 -0.10919441 0.01228103 0.26415804
-0.23521787 -0.12122311 -0.066329606 -0.35890585 -0.45224312 -0.105244726 -0.14368345 -0.028322954
0.07599216 -0.046074074 -0.16839202 -0.39326555 0.09076639 -0.14488864 -0.092089154 -0.08708187
-0.063190356 -0.08313544 -0.24202016 -0.00042880976 0.08034723 -0.20990732 0.23616478 0.014595105
-0.17988953 -0.55499136 -0.21447663 -0.17499174 -0.26329422 -0.09956526 -0.030635497 0.07291217
-0.17685148 -0.025124729 -0.095980756 0.033497106 -0.2718301 -0.03149383 -0.25696597 -0.47997504
-0.039884623 -0.052637335 -0.109259225 -0.1621636 -0.12385821 0.083175644 -0.108396634 -0.17790675
0.067907944 0.07405647 -0.20148902 -0.23152193 -0.29201013 -0.2141208 -0.33275023 -0.047275685
-0.19459487 -0.32011816 0.029772187 0.38172197 -0.014959491 0.17997889 -0.24987476 -0.039945405
-0.07807936 -0.04976731 -0.24320565 -0.06282525 -0.274816 -0.22498246 -0.09248328 -0.00016653619
-0.04692985 -0.34458566 -0.10866694 -0.2654281 0.08267611 -0.34216923 0.08679863 0.077088416
-0.059565067 -0.22857137 0.15042031 0.11121941 -0.27776805 -0.44552296 -0.281067 0.076543875
-0.0706869 -0.5702673 -0.07185621 -0.29565117 -0.31728187 -0.21652386 -0.29702118 -0.08472436
-0.4017676 0.25438878 -0.3165077 -0.41508037 0.05592679 -0.1501865 0.0504766 0.19180149
0.0018022998 -0.06870041 0.00043529432 -0.37518433 0.051701292 -0.0147462115 -0.10434669 0.11513475
00000000: bd2e 9dbd c52a a0bd 0067 dcbd 67ee 28be
00000010: f5db 2bbc eb55 493d 4af4 803d 6591 fabb
00000020: 34f9 afbd 87a8 0b3c 48ef f7bd ff68 8cbc
00000030: c28d e6bc 39af 9dbe 8640 5a3c 2370 833e
00000040: 8e2f 353d ed19 bdbd ea6e 3bbe 563c a73d
00000050: 8fb0 533c 546c 8a3d 6d03 813c 5c8e 6fbc
00000060: 8d27 ecbd 4562 c3bd d8f6 a1bd 9ee5 a73c
00000070: a547 2abe 8d20 d6bd 583b 9fbc b648 30be
00000080: 5f17 34be b296 febd 369c 4cbe 58cc bebd
00000090: f84f c4bd b270 d3bd f56c 2fbd f131 81bd
000000a0: 9cba b6bd f95b 2abd dadf 2abe 9541 e6bc
000000b0: eb5f afbd 7f5f e93c 99c8 36bc f4f1 adbd
000000c0: e7c7 97bd 18fe d0bd 798e 9cbd bd89 07be
000000d0: 4d31 aabd c683 aa3d f943 7a3d 6331 0b3d
000000e0: 26bb 9cb9 06bc 023d 602f babc ee94 89bd
000000f0: 2eea 89bd f486 73bd 506f 35be 4b8e 2dbe
00000100: a532 343c 683d 0abe 98b7 bd3b a54d 23bd
00000110: 9e75 fa3d 0035 62bd ccc8 713c 6e2d 3a3c
00000120: d851 9cbd 2b10 ce3d f41b e9bd 26a0 99bd
00000130: 9255 c4bc 54a3 6dbe 8a12 3b3b 6e71 073c
00000140: 0303 b5bd 65cc 44be 044f 9c3e e6d6 3fbe
00000150: 9eff 8abd 6c8e 0f3e 42d5 32be 9def 8abd
00000160: 4cca 80bd f60e 023e 9ee4 363d f622 c43d
00000170: 9c65 d53b 4fbf 5abd 6e3e 083c 2cba 42bd
00000180: 0b93 20be 9e82 19be 8f49 9dbd ba4a 90bd
00000190: 2265 b8bc 55b7 113d 70d1 11be 7614 adbd
000001a0: b9dc afbd 9100 7ebd 08ba 7f3d 2969 02ba
000001b0: 7e1b ff3b 7f66 093f 799a f4bd 8ab0 78bd
000001c0: ff41 88bc 4550 2a3d 6cf8 6bbd 8347 7cbe
000001d0: 90f0 b93d aa91 59bd 840b 27bd 58b0 a03c
000001e0: 5b88 13bd 9058 a6be 0797 eebe defd 09bf
000001f0: 83ec 01bf 1e53 c83b a70d b0be b88a e8bd
00000200: 7a58 53bd a457 91ba e6a9 a1be 127d 9ebe
00000210: febb aebc 5f93 863d 1baf 7f3d f934 c6bd
00000220: 5067 5ebc fc47 383e d40d 413b 813b a5be
00000230: 4df6 aabd 52a1 dfbd 6036 493c b93f 873e
00000240: f4dc 70be d243 f8bd d1d7 87bd 82c2 b7be
00000250: 698c e7be 8c8a d7bd c121 13be 8a05 e8bc
00000260: c7a1 9b3d 2bb8 3cbd f56e 2cbe 1a5a c9be
00000270: bbe3 b93d b05d 14be 3d99 bcbd fb57 b2bd
00000280: f269 81bd ea42 aabd 22d4 77be dfd1 e0b9
00000290: 178d a43d f2f1 56be 2ed5 713e 4f20 6f3c
000002a0: f634 38be ea13 0ebf c39f 5bbe 0931 33be
000002b0: 80ce 86be dfe8 cbbd 4bf7 fabc fa52 953d
000002c0: 8e18 35be 60d2 cdbc 8f91 c4bd 4334 093d
000002d0: 512d 8bbe adff 00bd 0b91 83be 4abf f5be
000002e0: 0f5e 23bd 3f9a 57bd 4dc3 dfbd 370e 26be
000002f0: 60a9 fdbd fe57 aa3d 0eff ddbd 302d 36be
00000300: 5213 8b3d ebaa 973d 2353 4ebe 1614 6dbe
00000310: 5a82 95be 7c42 5bbe 3d5e aabe 26a4 41bd
00000320: e143 47be 87e6 a3be cde4 f33c 1071 c33e
00000330: a718 75bc 634c 383e 2bdf 7fbe cb9d 23bd
00000340: 12e8 9fbd cfd8 4bbd e70a 79be 86aa 80bd
00000350: afb4 8cbe cd61 66be e067 bdbd 38a0 2eb9
00000360: 8439 40bd 886d b0be c68c debd 31e6 87be
00000370: 1852 a93d ce30 afbe 7bc3 b13d 88e0 9d3d
00000380: 80fa 73bd 9d0e 6abe c807 1a3e 01c7 e33d
00000390: 9d37 8ebe 961b e4be 04e8 8fbe 09c3 9c3d
000003a0: 4bc4 90bd 0afd 11bf 5929 93bd 975f 97be
000003b0: c572 a2be 6eb8 5dbe 2913 98be f783 adbd
000003c0: 7cb4 cdbe 3f3f 823e 4c0d a2be 6a85 d4be
000003d0: 7d13 653d 7dca 19be 8dc0 4e3d 9c67 443e
000003e0: 253b ec3a cdb2 8cbd 3738 e439 2918 c0be
000003f0: bcc4 533d 189a 71bc b8b3 d5bd c5cb eb3d

fc2.0.bias f4 [84]
-0.038939416 0.1437635 -0.042341348 -0.008619614 -0.06793335 -0.16422452 -0.03860904 0.081867084
-0.09833823 0.09360569 0.050601818 0.037914902 0.20761412 -0.2171825 -0.052531395 0.12663111
0.0274721 0.037271872 -0.0066301147 -0.07718084 0.053135 0.04311742 -0.043638293 0.06424952
-0.04194346 -0.048268266 -0.085003726 0.29513025 -0.24201252 0.08097221 0.00991102 0.14086862
-0.049073704 -0.090613045 -0.13620591 -0.06920662 0.03548413 -0.024477398 0.06311232 0.058193065
-0.13183373 -0.032009844 0.042851433 -0.22353388 -0.024599355 -0.037014313 0.059441414 0.15570854
-0.05516345 0.23115468 -0.15926939 -0.08239581 0.0041990345 0.083712116 0.069451675 0.405278
0.1738152 0.04523595 0.094070084 -0.046358347 -0.058290794 -0.019403141 0.06545568 0.07556788
-0.103608534 0.01427822 0.0076595657 -0.11700741 0.1969481 0.27814797 -0.059122432 0.028647887
-0.06500903 -0.13099293 -0.0961118 0.12536702 -0.09346557 0.06999019 -0.021180756 0.10661533
0.12964454 0.4006907 0.015031277 -0.026479911
00000000: f07e 1fbd bd36 133e 1f6e 2dbd 4839 0dbc
00000010: a420 8bbd 792a 28be 8324 1ebd eea9 a73d
00000020: 8e65 c9bd 57b4 bf3d da43 4f3d a84c 1b3d
00000030: cc98 543e 1765 5ebe 292b 57bd 96ab 013e
00000040: 2b0d e13c 64aa 183d 6f41 d9bb fd10 9ebd
00000050: 16a4 593d e49b 303d 11be 32bd 4195 833d
00000060: e8cc 2bbd f2b4 45bd 6f16 aebd 501b 973e
00000070: 21d2 77be c2d4 a53d d561 223c dd3f 103e
00000080: 8201 49bd 5593 b9bd 9079 0bbe 33bc 8dbd
00000090: cf57 113d d384 c8bc 0841 813d da5b 6e3d
000000a0: 6cff 06be c11c 03bd fc84 2f3d 11e6 64be
000000b0: 9684 c9bc 529c 17bd d778 733d 0f72 1f3e
000000c0: 12f3 61bd d0b3 6c3e 8417 23be 22bf a8bd
000000d0: 0e98 893b 4271 ab3d ae3c 8e3d 9980 cf3e
000000e0: 9dfc 313e 5549 393d d1a7 c03d 40e2 3dbd
000000f0: 54c2 6ebd 56f3 9ebc a10d 863d 55c3 9a3d
00000100: b630 d4bd 32ef 693c 18fd fa3b 95a1 efbd
00000110: c3ac 493e 6969 8e3e 5d2a 72bd f9ae ea3c
00000120: 7423 85bd 0323 06be 43d6 c4bd 3660 003e
00000130: e06a bfbd 0457 8f3d 4483 adbc 2359 da3d
00000140: 8ac1 043e 5527 cd3e bf45 763c 66ec d8bc

fc3.weight f4 [10, 84]
0.057957694 0.11314891 -0.38923302 -0.05025844 -0.15740395 -0.033136904 -0.07653997 0.17317678
0.057251662 -0.026274133 0.012782843 -0.22164983 0.107203744 -0.18570891 -0.18084288 -0.0006143804
-0.30894673 -0.05292988 -0.34039646 0.09816767 0.29860154 -0.08517998 -0.07745968 -0.17977697
0.05792148 0.03194275 -0.10715001 -0.17598353 -0.02496397 -0.113017574 -0.27343768 0.14399044
-0.0016392053 0.041661557 -0.026692068 -0.3446563 -0.05316801 0.10977547 0.33865094 0.31237945
0.04293261 0.108392455 -0.19594817 -0.26207033 0.019370358 0.0974091 -0.038133457 -0.12881035
-0.14969878 -0.002722055 -0.049089614 -0.106293745 0.17056794 0.21457727 -0.025498223 -0.25472048
0.05482781 -0.16768317 0.26937604 0.072124496 0.0068802964 0.14778277 0.048772797 0.22174965
-0.02960732 -0.13563341 0.29012007 -0.01434129 -0.23529956 0.100425035 0.06424395 -0.013341383
-0.1902352 -0.27635604 0.120310694 -0.08753909 -0.031375363 -0.16439983 0.2742561 -0.07524965
0.40561393 -0.09036637 0.208866 0.18272315 -0.09303778 -0.42591912 -0.12049114 0.0019567714
-0.0038611288 0.049755298 0.080392 -0.2919011 -0.27214605 -0.07204134 0.04169817 0.14495575
0.024587614 0.16264182 0.105575316 0.3785385 -0.055421136 0.21933042 -0.012544797 -0.008374578
-0.23761386 0.106868826 0.052428387 -0.11610101 -0.24449797 0.6556768 0.23865773 0.22296497
0.10688502 -0.21472716 -0.0068844645 -0.19785546 0.17293294 -0.057222497 -0.14656259 -0.094112016
0.2051906 -0.37221438 -0.017118173 -0.32210425 0.07836551 -0.26837468 0.028374858 0.19243965
0.10719187 0.045508794 -0.088988595 -0.22648998 -0.07262526 0.3400882 -0.010516175 -0.10080759
-0.2681728 -0.18037032 -0.24538301 0.09074997 -0.30589396 -0.26628307 0.29883996 0.16449612
-0.1582501 -0.0062464913 -0.14299688 0.2904994 0.23150228 -0.1783388 -0.05759457 0.07024768
0.20062816 -0.047226686 0.014186419 -0.0019396361 -0.07229374 0.018618448 -0.043604895 0.13802318
0.05118061 -0.0035117844 -0.10309155 -0.12206894 -0.021993639 0.238816 -0.17458428 -0.12744859
0.11364234 -0.25922298 -0.27861816 0.029881127 -0.014070897 0.2501822 0.26417702 -0.16559984
-0.036013972 0.1495549 0.020260265 -0.15611002 0.08580497 0.4470833 0.035990596 0.106254674
0.20428953 -0.023863008 0.037463102 0.1433286 -0.1557624 -0.17977804 -0.17743708 -0.08901995
0.042209715 -0.20868301 -0.23168543 -0.30976018 0.19401155 -0.1322136 -0.060380716 -0.13066174
-0.14335527 -0.03402914 0.014169834 -0.035701796 -0.11073695 -0.19062546 -0.01143884 -0.09316051
0.053970683 0.20128578 -0.09875338 0.15497525 -0.18826318 0.13478784 0.16577363 -0.062669285
0.10037887 -0.13148186 -0.059524845 0.22914672 0.08077185 0.092281155 0.1268347 -0.23298553
0.18779548 -0.17934285 -0.061809134 -0.20125636 0.25862226 0.013681702 0.18119246 0.01745193
0.20592591 -0.20735921 0.12681559 0.27471295 -0.24110907 -0.18097274 0.13120987 0.0071490086
-0.1591998 -0.09859546 -0.23523034 -0.068914905 -0.11312205 0.03492608 0.03463771 -0.06581975
-0.007702135 0.13767755 0.020175803 -0.10312562 0.3241829 0.046933874 0.026397726 -0.15382868
00000000: 0c65 6d3d 9eba e73d 8d49 c7be cbdb 4dbd
00000010: 802e 21be 90ba 07bd fdc0 9cbd 4155 313e
00000020: b880 6a3d da3c d7bc 216f 513c 2cf8 62be
00000030: a38d db3d 7a2a 3ebe e02e 39be 5f0e 21ba
00000040: 442e 9ebe 00cd 58bd 7248 aebe 220c c93d
00000050: 4de2 983e d772 aebd 2ea3 9ebd 7417 38be
00000060: 133f 6d3d 67d6 023d 7771 dbbd 0735 34be
00000070: 3d81 ccbc c275 e7bd 0600 8cbe 3b72 133e
00000080: 9ada d6ba 4fa5 2a3d 53a9 dabc ca76 b0be
00000090: b3c6 59bd f6d1 e03d a863 ad3e 33f0 9f3e
000000a0: 1bda 2f3d ddfc dd3d a3a6 48be 152e 86be
000000b0: 96ae 9e3c 6c7e c73d d431 1cbd dce6 03be
000000c0: a34a 19be 8164 32bb 3112 49bd 89b0 d9bd
000000d0: 5da9 2e3e 25ba 5b3e a6e1 d0bc b96a 82be
000000e0: 2093 603d 23b5 2bbe a8eb 893e 02b6 933d
000000f0: 1c74 e13b 5e54 173e fcc5 473d 5712 633e
00000100: 0d8b f2bc 7ce3 0abe 9e8a 943e bbf7 6abc
00000110: 5ef2 70be a4ab cd3d 5592 833d d195 5abc
00000120: 04cd 42be 8a7e 8dbe 7465 f63d b247 b3bd
00000130: 7483 00bd 6e58 28be 4c6b 8c3e 7d1c 9abd
00000140: a1ac cf3e 0112 b9bd f8e0 553e c71b 3b3e
00000150: 978a bebd 1212 dabe 0fc4 f6bd 2d3d 003b
00000160: fe0a 7dbb 36cc 4b3d 90a4 a43d 1074 95be
00000170: ba56 8bbe 698a 93bd b3cb 2a3d 486f 143e
00000180: f76b c93c 948b 263e df37 d83d cccf c13e
00000190: 4601 63bd 2798 603e b188 4dbc 8735 09bc
000001a0: 0c51 73be 0bde da3d 26bf 563d 5ec6 edbd
000001b0: ad5d 7abe 6fda 273f b162 743e ee50 643e
000001c0: 89e6 da3d 70e1 5bbe 1397 e1bb 9f9a 4abe
000001d0: 5515 313e 2362 6abd 8114 16be cdbd c0bd
000001e0: 7c1d 523e e292 bebe 693b 8cbc d9ea a4be
000001f0: 197e a03d 6868 89be 6472 e83c e60e 453e
00000200: 6987 db3d 6e67 3a3d a73f b6bd fdec 67be
00000210: 8dbc 94bd 0a20 ae3e 094c 2cbc 3674 cebd
00000220: f24d 89be ffb2 38be af45 7bbe 1fdb b93d
00000230: 229e 9cbe 4156 88be 8d01 993e ac71 283e
00000240: 500c 22be 5eaf ccbb c66d 12be 56bc 943e
00000250: ef0e 6d3e 729e 36be 49e8 6bbd 04de 8f3d
00000260: 7871 4d3e c570 41bd 276e 683c 633b feba
00000270: be0e 94bd b785 983c 0c9b 32bd f355 0d3e
00000280: c2a2 513d f725 66bb aa21 d3bd 48ff f9bd
00000290: 012c b4bc 2e8c 743e 39c6 32be e281 02be
000002a0: 51bd e83d e0b8 84be 0aa7 8ebe 44c9 f43c
000002b0: 9f89 66bc e217 803e 3642 873e 0193 29be
000002c0: 6383 13bd eb24 193e dbf8 a53c 4edb 1fbe
000002d0: 84ba af3d 1ae8 e43e e06a 133d 0d9c d93d
000002e0: 4631 513e 5b7c c3bc e972 193d bcc4 123e
000002f0: 2e80 1fbe bc17 38be 11b2 35be 1750 b6bd
00000300: 18e4 2c3d 00b1 55be f23e 6dbe e398 9ebe
00000310: f7aa 463e 0163 07be c551 77bd 31cc 05be
00000320: b9cb 12be 2462 0bbd 9728 683c 0c3c 12bd
00000330: 0eca e2bd 5233 43be f969 3bbc f0ca bebd
00000340: 5d10 5d3d dc1d 4e3e 363f cabd d5b1 1e3e
00000350: 10c8 40be d305 0a3e 90c0 293e c158 80bd
00000360: 7093 cd3d 2ea3 06be 53d0 73bd 70a5 6a3e
00000370: b66b a53d e7fd bc3d f5e0 013e c293 6ebe
00000380: 754d 403e a7a5 37be 932b 7dbd 2616 4ebe
00000390: 236a 843e 3829 603c 848a 393e 5af7 8e3c
000003a0: 3ede 523e f955 54be f2db 013e 2da7 8c3e
000003b0: 4ce5 76be eb50 39be e15b 063e 3b42 ea3b
000003c0: 4605 23be 6bec c9bd 39e0 70be 4223 8dbd
000003d0: 89ac e7bd a60e 0f3d 45e0 0d3d 81cc 86bd
000003e0: 3162 fcbb 58fb 0c3e ba47 a53c 8633 d3bd
000003f0: 4dfb a53e bc3d 403d 0b40 d83c 4485 1dbe

fc3.bias f4 [10]
-0.10046129 -0.2281806 -0.10824946 -0.16642627 -0.16079456 -0.0649166 -0.36855674 0.2157858
0.7294482 0.26078075
00000000: a6be cdbd 2da8 69be e5b1 ddbd a66b 2abe
00000010: 54a7 24be fff2 84bd 78b3 bcbe f4f6 5c3e
00000020: 1ebd 3a3f 0e85 853e
